models/face-detection-edgeimpulse.tflite (tflite, 84972 bytes, 42 tensors)

head/bias f4 [32]
-0.014512437 -0.008371588 -0.013412757 -0.0014397053 0.0058118254 0.006434021 0.0525858 -0.014546531
0.008387328 -0.014411255 -0.008153618 0.0024459888 0.059368636 -0.00857159 0.0069759474 -0.0047889086
-0.01354378 0.0040840306 0.0031232839 0.006534561 -0.00590848 -0.02336858 -0.0070544193 -0.0108364355
0.008739801 0.075720534 -0.014045362 -0.011298708 0.0054048486 -0.007973919 0.010040729 -0.00670827
00000000: 93c5 6dbc fc28 09bc 2ec1 5bbc 7eb4 bcba
00000010: 2071 be3b 7bd4 d23b 3564 573d 9354 6ebc
00000020: 016b 093c 2f1d 6cbc c196 05bc e24c 203b
00000030: 872c 733d db6f 0cbc 7d96 e43b 47ec 9cbb
00000040: bbe6 5dbc 55d3 853b 02b0 4c3b df1f d63b
00000050: ec9b c1bb 776f bfbc c228 e7bb 4e8b 31bc
00000060: 6231 0f3c 5e13 9b3d 851e 66bc 371e 39bc
00000070: 281b b13b 0aa5 02bc df81 243c 0cd1 dbbb

model_1/bn_Conv1/FusedBatchNormV3 f4 [16]
-1.4068205 1.8627226 -16.840977 1.0467463 3.3636293 1.0064154 3.2141206 1.0698891
-0.84405375 1.9727632 2.9976847 5.0371675 -1.2384405 3.8188076 2.0981998 -0.13350634
00000000: b212 b4bf b26d ee3f 52ba 86c1 c8fb 853f
00000010: b445 5740 38d2 803f 27b4 4d40 20f2 883f
00000020: e813 58bf 8183 fc3f 11da 3f40 7a30 a140
00000030: 3885 9ebf 5867 7440 e848 0640 e3b5 08be

model_1/expanded_conv_depthwise_BN/FusedBatchNormV3 f4 [16]
-0.30109996 2.6402366 4.037111 3.483928 1.8270513 3.3196003 4.937309 3.9087856
-0.25864533 1.8347213 5.806619 10.519917 -0.32396248 6.537153 2.055266 -0.4164289
00000000: c629 9abe a3f9 2840 0330 8140 adf8 5e40
00000010: d1dc e93f 5574 5440 6ffe 9d40 8b29 7a40
00000020: 296d 84be 26d8 ea3f d3cf b940 9451 2841
00000030: 69de a5be 5b30 d140 7a89 0340 2b36 d5be

model_1/block_1_expand_BN/FusedBatchNormV3 f4 [48]
2.1084435 0.023060653 3.1692915 1.8542672 2.0038176 2.0514758 3.83831 -0.08523814
0.019489847 -0.7464805 1.4717122 0.8100734 2.1940677 -0.16218366 2.6359177 3.319586
-0.13092306 -0.68751323 -0.21903865 3.8357265 1.0502172 -0.06890172 -0.011150467 0.6386565
3.7678187 -0.53613186 0.15147406 1.2026224 1.1584202 2.9319856 2.9379911 2.3366654
0.74124795 3.255207 0.15127563 -1.2364204 1.5454999 1.3206397 -0.3453027 3.4940815
2.8536708 2.224978 -0.11338201 -0.7691424 5.036545 0.09017985 2.8107972 0.86578393
00000000: bdf0 0640 b2e9 bc3c acd5 4a40 a158 ed3f
00000010: 8c3e 0040 614b 0340 dfa6 7540 5591 aebd
00000020: 2ca9 9f3c 5919 3fbf 1161 bc3f f860 4f3f
00000030: 9b6b 0c40 7913 26be e0b2 2840 1974 5440
00000040: b210 06be de00 30bf ab4b 60be 8b7c 7540
00000050: 846d 863f 581c 8dbd 73b0 36bc fe7e 233f
00000060: f123 7140 f03f 09bf 041c 1b3e 88ef 993f
00000070: 1d47 943f a7a5 3b40 0c08 3c40 ed8b 1540
00000080: 6dc2 3d3f 5055 5040 00e8 1a3e 0643 9ebf
00000090: f1d2 c53f b90a a93f 84cb b0be 089f 5f40
000000a0: 8ba2 3640 0a66 0e40 d434 e8bd 84e6 44bf
000000b0: 602b a140 37b0 b83d 1ae4 3340 04a4 5d3f

model_1/block_1_depthwise_BN/FusedBatchNormV3 f4 [48]
5.9586015 4.0126047 9.649703 4.5203185 0.046191756 2.201493 0.3799507 1.7339354
2.236535 0.9603431 2.5712335 0.28212655 -8.511034 -0.7051001 2.5733635 0.24583992
-0.56034213 0.8122332 0.1517846 0.2940749 -1.6549104 1.0413747 5.9197464 1.3741729
-1.6453848 2.753974 1.4775472 0.82353866 -0.7752425 0.7401233 -0.37995556 -11.373932
2.4555619 1.0361514 2.4049685 0.2998278 0.91207075 0.15760338 4.7272534 -2.2786136
0.8255337 -6.440821 0.17278099 0.99223655 -0.116117924 6.03145 0.3771727 -3.1440156
00000000: ddac be40 4267 8040 2f65 1a41 73a6 9040
00000010: 9133 3d3d 43e5 0c40 e688 c23e 98f1 dd3f
00000020: 6423 0f40 0cd9 753f 178f 2440 e472 903e
00000030: 322d 08c1 7181 34bf fdb1 2440 76bd 7b3e
00000040: 9572 0fbf 84ee 4f3f 6c6d 1b3e fc90 963e
00000050: 1bd4 d3bf c44b 853f 906e bd40 e6e4 af3f
00000060: f89b d2bf 1c41 3040 4420 bd3f 6ed3 523f
00000070: 4b76 46bf b878 3d3f 8989 c2be a0fb 35c1
00000080: ed27 1d40 9ca0 843f 01eb 1940 0883 993e
00000090: 787d 693f c862 213e a945 9740 ced4 11c0
000000a0: 2d56 533f 351b cec0 80ed 303e 3703 7e3f
000000b0: 3ccf edbd a301 c140 c81c c13e 8d37 49c0

model_1/block_2_expand_BN/FusedBatchNormV3 f4 [48]
4.3700004 2.2520628 1.5486838 3.2095811 2.2635014 5.0385284 -1.9193273 -0.2669752
0.60343146 1.3778505 2.2520614 0.1767453 0.95821494 -0.46037042 0.45343998 -3.6190174
1.622128 4.23259 -0.5023656 2.688874 1.2035199 1.006501 3.9738157 -0.548367
1.19692 1.1920812 4.05721 3.7110229 -0.049431287 -2.6170425 0.06691757 0.76833963
-1.9799678 2.1738906 1.032239 1.8968233 3.6481826 1.390725 2.335094 4.525385
-0.5730952 2.7913492 0.44596335 1.5302917 1.1736155 1.0865304 -1.1666148 2.6501133
00000000: 0bd7 8b40 cc21 1040 453b c63f c769 4d40
00000010: 35dd 1040 a03b a140 84ac f5bf f9b0 88be
00000020: 7c7a 1a3f 685d b03f c621 1040 b8fc 343e
00000030: 934d 753f acb5 ebbe 4929 e83e fb9d 67c0
00000040: e4a1 cf3f 6171 8740 089b 00bf 8316 2c40
00000050: f10c 9a3f 06d5 803f ff52 7e40 c861 0cbf
00000060: ad34 993f 1e96 983f aad4 8140 6681 6d40
00000070: 7678 4abd a07d 27c0 140c 893d e8b1 443f
00000080: 966f fdbf 0621 0b40 6820 843f 1bcb f23f
00000090: d37b 6940 4703 b23f 2e72 1540 f4cf 9040
000000a0: 5eb6 12bf 77a5 3240 4f55 e43e 99e0 c33f
000000b0: 0839 963f 6e13 8b3f a253 95bf 759b 2940

model_1/block_2_depthwise_BN/FusedBatchNormV3 f4 [48]
-16.317657 -0.06615975 1.6087828 -0.043333873 0.66955364 -0.53117645 1.1699318 3.5023108
0.21663997 4.799737 -0.08608216 4.266858 -1.6715376 -0.19096649 2.5196745 1.6303298
0.026268601 3.9460962 2.3310716 1.6866027 0.08529525 -0.106805466 0.028401826 2.104639
-1.296019 3.5949347 25.990612 3.3148866 0.7154676 0.76540345 -0.1775339 0.0891348
0.88006026 2.8465688 -1.2985611 2.4322345 -3.6760094 2.5007174 -5.99584 2.603561
3.1791427 1.1798487 1.6167009 -0.16643956 2.2616587 0.28124723 0.27896807 0.028444316
00000000: 908a 82c1 c37e 87bd 98ec cd3f dc7e 31bd
00000010: de67 2b3f 2efb 07bf 53c0 953f dc25 6040
00000020: ded6 5d3e 7297 9940 d84b b0bd 1a8a 8840
00000030: f2f4 d5bf b88c 43be 5942 2140 a6ae d03f
00000040: 4031 d73c d78c 7c40 4730 1540 99e2 d73f
00000050: 47af ae3d d3bc dabd f2aa e83c 68b2 0640
00000060: f3e3 a5bf 6913 6640 c6ec cf41 1a27 5440
00000070: e228 373f 7bf1 433f 72cb 35be 4e8c b63d
00000080: a14b 613f 2f2e 3640 4037 a6bf bba9 1b40
00000090: bd43 6bc0 c10b 2040 ecdd bfc0 bea0 2640
000000a0: 1377 4b40 4805 973f 0ef0 ce3f 226f 2abe
000000b0: 04bf 1040 a3ff 8f3e e7d4 8e3e 0e04 e93c

model_1/block_3_expand_BN/FusedBatchNormV3 f4 [48]
0.24468337 0.7084624 0.54937273 0.16685286 2.206763 4.061625 1.1069454 -0.043224595
-0.2920905 -0.42144805 1.0001855 0.30752397 1.253481 0.7253464 3.5829778 1.2266802
0.5477978 -0.37408364 -0.08490826 0.93019265 -0.5753686 2.5305626 3.7099335 1.5667721
1.5701553 0.10601334 6.926912 1.8774966 1.7221725 -0.22482985 2.6227171 1.1850364
0.34806895 -0.033799864 3.6955903 1.7794203 -1.4131433 0.0752704 -0.1553273 1.8290727
0.13877828 -0.13066633 -0.25359976 -0.01565051 1.9794532 1.3765842 0.23274772 1.1995072
00000000: 478e 7a3e cb5d 353f b1a3 0c3f 7adb 2a3e
00000010: 9b3b 0d40 d5f8 8140 63b0 8d3f 460c 31bd
00000020: e38c 95be 0ac8 d7be 1406 803f c873 9d3e
00000030: 1172 a03f 4db0 393f 824f 6540 db03 9d3f
00000040: 7a3c 0c3f e487 bfbe 62e4 adbd 1b21 6e3f
00000050: 5b4b 13bf bdf4 2140 8d6f 6d40 fd8b c83f
00000060: d9fa c83f 861d d93d 43a9 dd40 cf51 f03f
00000070: 2670 dc3f cc39 66be 99da 2740 46af 973f
00000080: 1836 b23e ba71 0abd 8d84 6c40 0bc4 e33f
00000090: e1e1 b4bf 5e27 9a3d 1f0e 1fbe 0e1f ea3f
000000a0: e51b 0e3e 65cd 05be d4d7 81be 8035 80bc
000000b0: b95e fd3f e933 b03f 6b55 6e3e 7489 993f

model_1/block_3_depthwise_BN/FusedBatchNormV3 f4 [48]
0.24456799 1.5870025 -0.21989663 2.1549125 0.51626265 7.888215 -0.43609917 5.8624663
0.19224054 1.3913323 1.1714317 -0.04418981 -0.15500128 1.2047033 -0.13349286 -0.32092097
-0.111816816 -0.018530369 0.16331977 -0.2927213 -0.015898079 -0.5806325 -0.08050102 -2.3879437
-0.45953432 4.512991 2.6921442 6.9104576 0.31031257 0.4253354 -0.27170315 0.20220645
1.1645393 0.026261985 1.3615117 0.21348357 5.8632407 0.14983034 5.9768467 0.19616696
0.117162764 5.865505 -0.05729401 0.2537198 1.7226238 -0.12159884 0.16848719 1.7991726
00000000: 0870 7a3e e622 cb3f 952c 61be 16ea 0940
00000010: ca29 043f 426c fc40 6448 dfbe 5399 bb40
00000020: b4da 443e 2d17 b23f 79f1 953f 6000 35bd
00000030: a8b8 1ebe b833 9a3f 5ab2 08be c14f a4be
00000040: 3700 e5bd 00cd 97bc 4c3d 273e 91df 95be
00000050: b03c 82bc 55a4 14bf b8dd a4bd 12d4 18c0
00000060: 1548 ebbe 6c6a 9040 174c 2c40 7822 dd40
00000070: 4ae1 9e3e 90c5 d93e ad1c 8bbe 350f 4f3e
00000080: a00f 953f 6023 d73c 0446 ae3f 709b 5a3e
00000090: ab9f bb40 206d 193e 5442 bf40 fedf 483e
000000a0: 08f3 ef3d 38b2 bb40 20ad 6abd 90e7 813e
000000b0: f07e dc3f d008 f9bd e887 2c3e 4a4b e63f

model_1/block_4_expand_BN/FusedBatchNormV3 f4 [96]
2.6160274 0.30581442 1.3489676 -0.5768854 1.590859 0.9254769 3.115644 3.535693
-0.42854902 1.8450061 1.4192953 0.8685687 2.7199583 4.8146343 -0.15563715 -0.7463972
2.2217443 2.2928727 0.43462443 -0.11835635 -0.2455175 2.4469357 1.4547282 0.7912085
1.7668401 2.0868592 1.4293414 0.9406156 0.013414908 -0.008907432 1.4783162 1.8827353
1.9752402 1.0622424 1.6533241 -0.26977393 2.253248 2.61438 0.46971443 0.99401677
0.4882403 1.8915642 2.170072 0.7693289 1.1501124 3.234152 2.8580372 1.4253072
1.5989325 0.87998056 0.12556666 -0.6395273 2.6885302 1.6137639 2.3731625 1.851575
-0.10972938 1.7499729 0.77231395 1.6236788 1.6716079 1.3959453 1.1038225 2.7728279
1.0526515 1.1305379 1.9517316 -0.34537944 2.6796796 1.1441945 2.0173783 -0.4930497
-0.39362225 1.3169448 0.4256361 1.271936 2.3643682 4.4617305 1.6579472 -1.2732437
1.0494483 -2.0423493 -0.43123832 0.2454961 1.6007271 1.5527049 1.5945051 1.35911
1.637545 1.5900034 1.3778812 1.6415462 2.0870178 2.7394884 -2.9070966 3.3080623
00000000: fe6c 2740 b593 9c3e f8aa ac3f c3ae 13bf
00000010: 45a1 cb3f 0eec 6c3f b666 4740 cb48 6240
00000020: c76a dbbe 2929 ec3f 78ab b53f 855a 5e3f
00000030: cc13 2e40 7c11 9a40 585f 1fbe e313 3fbf
00000040: 0f31 0e40 6dbe 1240 1887 de3e d064 f2bd
00000050: f168 7bbe 989a 1c40 8934 ba3f a48c 4a3f
00000060: d127 e23f 1a8f 0540 a9f4 b63f 2fcc 703f
00000070: 34ca 5b3c 7af0 11bc 7739 bd3f 78fd f03f
00000080: acd4 fc3f 8ff7 873f 20a0 d33f cf1f 8abe
00000090: 3735 1040 0052 2740 697e f03e e277 7e3f
000000a0: a2fa f93e c71e f23f 76e2 0a40 bdf2 443f
000000b0: e236 933f 59fc 4e40 15ea 3640 7770 b63f
000000c0: d2a9 cc3f 6846 613f 8c94 003e 10b8 23bf
000000d0: e110 2c40 d18f ce3f e5e1 1740 6900 ed3f
000000e0: ccb9 e0bd 1dff df3f 5eb6 453f b5d4 cf3f
000000f0: 3ff7 d53f 56ae b23f 0e4a 8d3f 0376 3140
00000100: 49bd 863f 77b5 903f 57d2 f93f 93d5 b0be
00000110: df7f 2b40 f774 923f ba1c 0140 0371 fcbe
00000120: db88 c9be a691 a83f faec d93e cdce a23f
00000130: cf51 1740 7fc6 8e40 9d37 d43f a6f9 a2bf
00000140: 5254 863f dab5 02c0 45cb dcbe 5463 7b3e
00000150: a0e4 cc3f 09bf c63f be18 cc3f 51f7 ad3f
00000160: 139b d13f 3b85 cb3f 695e b03f 301e d23f
00000170: b391 0540 c753 2f40 df0d 3ac0 4bb7 5340

model_1/block_4_depthwise_BN/FusedBatchNormV3 f4 [96]
1.7700615 -1.2639128 0.6264715 2.1554458 -0.2463154 -0.7717323 -3.70068 0.28263766
-0.44057944 0.36348382 0.58001333 -0.5756241 0.09278795 -2.7688317 0.90390396 -0.86575186
-0.037867546 5.029778 1.6715577 0.57116187 0.119209886 -0.37976187 0.13463557 0.023970366
3.597864 -0.33540338 -0.12187185 -0.61270416 -0.8164849 -0.8816235 0.89007664 -1.606208
0.112860635 -0.17898715 -0.30397022 2.316969 0.75725055 -0.40158868 1.0489243 -0.01507619
-0.13499993 0.4529516 -3.43787 -1.2609546 -1.4057916 3.4713342 0.1223993 3.2942333
2.6318967 -2.2754536 0.04070002 1.2991505 1.6528664 -0.1098579 -1.3197908 0.9786163
-3.7585154 0.27306467 0.1438822 -0.5163684 -0.20760715 -0.079296 -3.4437532 -0.02534733
0.30484316 2.8054242 2.493077 1.773871 -4.1702304 0.00022438169 -1.7531111 -0.10292031
5.794216 1.3879501 0.019842971 0.05884251 9.274384 1.6156678 -0.10093707 -1.8943686
-0.33586895 -2.1806526 0.1225909 -0.5891296 0.1414658 0.29613703 0.10069789 -0.047430903
0.32371062 -0.32577217 0.016088843 -0.07125269 0.020097874 -0.16858226 1.2672681 3.8519382
00000000: 6091 e23f e5c7 a1bf 7060 203f d3f2 0940
00000010: 1b3a 7cbe 3f90 45bf f1d7 6cc0 e2b5 903e
00000020: a193 e1be 8d1a ba3e c17b 143f 1a5c 13bf
00000030: 9c07 be3d 8a34 31c0 4066 673f eaa1 5dbf
00000040: 001b 1bbd f1f3 a040 9af5 d53f aa37 123f
00000050: 5024 f43d 2670 c2be e8dd 093e 805d c43c
00000060: 6743 6640 feb9 abbe f397 f9bd 2eda 1cbf
00000070: 2805 51bf 14b2 61bf 10dc 633f 3998 cdbf
00000080: 7a23 e73d 6848 37be fca1 9bbe 3849 1440
00000090: 2cdb 413f 089d cdbe 2743 863f 2002 77bc
000000a0: 6c3d 0abe 46e9 e73e 1006 5cc0 f666 a1bf
000000b0: fbf0 b3bf 572a 5e40 7cac fa3d b8d4 5240
000000c0: ff70 2840 08a1 11c0 10b5 263d 904a a63f
000000d0: 2091 d33f 2efd e0bd e8ee a8bf 9986 7a3f
000000e0: 848b 70c0 22cf 8b3e db55 133e b830 04bf
000000f0: f896 54be f165 a2bd 7466 5cc0 34a5 cfbc
00000100: 6714 9c3e 128c 3340 938e 1f40 340e e33f
00000110: 8772 85c0 0048 6b39 f265 e0bf e2c7 d2bd
00000120: 386a b940 59a8 b13f ba8d a23c d804 713d
00000130: e063 1441 34ce ce3f 18b8 cebd ac7a f2bf
00000140: 04f7 abbe d08f 0bc0 f010 fb3d 33d1 16bf
00000150: 69dc 103e 469f 973e b23a ce3d e846 42bd
00000160: 66bd a53e 9ccb a6be c0cc 833c eeec 91bd
00000170: 4ca4 a43c d4a0 2cbe d735 a23f 2886 7640

model_1/block_5_expand_BN/FusedBatchNormV3 f4 [96]
0.36042154 1.4388558 1.9074172 2.264362 2.9710085 -0.9721002 -0.80672777 1.6062378
2.3358362 -1.3576388 2.6668575 0.8747606 1.2483816 2.2777572 2.413721 0.5629619
0.43113142 1.2490246 2.2216725 1.1752383 -0.07641296 0.2599659 2.0165484 -0.60359466
2.633729 0.06009394 2.221772 1.4416099 1.6885233 3.5105317 2.8470676 2.4678824
1.6769481 -0.24702495 2.0019128 0.55114496 0.4781607 1.5462881 2.614432 -0.57488084
1.869381 1.5903205 2.6898577 -1.0515989 3.2339497 1.5311697 1.7288852 2.7104378
4.093326 2.1502993 -0.1158264 1.7175255 -1.0624292 -0.031277526 -1.0677557 1.1305107
-0.105830066 1.889151 2.0714273 1.4734542 1.6063632 1.4104364 1.4642211 0.9809958
2.4828742 1.9231367 1.2948879 -1.3280852 1.6779197 -0.63712436 1.1242009 1.5977659
2.0700638 1.0422041 -1.5274525 -1.2980205 1.6700304 0.061880857 0.7680764 -0.37120402
2.0700104 1.6830602 0.88696045 1.9095076 1.1482489 0.06537698 2.3523831 3.8126638
1.4088554 2.2249403 1.3034265 -0.07086971 1.4598594 1.6050191 1.1447195 1.6870812
00000000: 2c89 b83e 6d2c b83f 3f26 f43f 4feb 1040
00000010: 0125 3e40 8fdb 78bf b685 4ebf 3399 cd3f
00000020: 577e 1540 1cc7 adbf cbad 2a40 50f0 5f3f
00000030: f8ca 9f3f c6c6 1140 687a 1a40 451e 103f
00000040: 42bd dc3e 0ae0 9f3f e22f 0e40 356e 963f
00000050: 667e 9cbd 401a 853e 210f 0140 2e85 1abf
00000060: 048f 2840 1025 763d 8331 0e40 ac86 b83f
00000070: 8821 d83f 8dac 6040 5b36 3640 c9f1 1d40
00000080: 3ca6 d63f 1cf4 7cbe 571f 0040 d617 0d3f
00000090: 7bd1 f43e c5ec c53f db52 2740 642b 13bf
000000a0: e047 ef3f 9f8f cb3f a126 2c40 cb9a 86bf
000000b0: 08f9 4e40 5efd c33f 1c4c dd3f d077 2d40
000000c0: 87fc 8240 819e 0940 6436 edbd e0d7 db3f
000000d0: aefd 87bf dd1c 00bd 38ac 88bf 93b4 903f
000000e0: 6fbd d8bd b3cf f13f 4492 0440 269a bc3f
000000f0: 4f9d cd3f 2e89 b43f 996b bb3f 8a22 7b3f
00000100: 69e7 1e40 5829 f63f e3be a53f b2fe a9bf
00000110: 13c6 d63f 951a 23bf d1e5 8f3f 9883 cc3f
00000120: ed7b 0440 f266 853f 9083 c3bf 8925 a6bf
00000130: 8ec3 d53f c876 7d3d a8a0 443f 740e bebe
00000140: 0d7b 0440 846e d73f d70f 633f bf6a f43f
00000150: d2f9 923f 5ee4 853d 728d 1640 af02 7440
00000160: 6055 b43f 6c65 0e40 aed6 a63f 2324 91bd
00000170: acdc ba3f 4471 cd3f 2b86 923f 47f2 d73f

model_1/block_5_depthwise_BN/FusedBatchNormV3 f4 [96]
2.4671783 5.663804 -0.25405744 -0.30068517 3.3570535 -0.8196618 -0.019016176 -0.013554417
1.7128431 2.3683143 -1.1859268 -0.10617058 0.27199748 0.6860417 2.0929146 -1.4040971
-0.9267851 -0.11490922 -0.13306983 1.0792265 -0.79145384 1.0147762 -0.4300037 0.72393394
3.1780033 -0.012248486 -0.8897378 3.058724 1.3136082 -9.580007 0.7151719 5.4968104
2.7202601 -1.5943961 0.5947213 0.029192924 -0.27663732 0.1096341 0.8998598 -0.85839057
-1.1322293 0.11964161 -2.9034386 -0.0013302118 10.535184 -0.12655789 1.1996102 -0.59091306
-9.908123 0.12534785 -0.018170962 0.0030009449 -0.5415166 2.797358 -0.84783113 1.7537003
2.7966838 -0.21887666 1.8196878 -0.06062986 -2.6852713 -0.33233806 0.16644625 -0.049865536
-0.23416832 1.7953814 -0.22807711 -2.2137947 -0.64478743 0.29769635 0.02329892 -0.37202933
0.107104346 0.108628355 -0.7027314 -1.903582 -0.14099649 -0.21806213 2.5987418 -1.3102199
-1.1257095 -2.6534705 -0.06604664 -0.021822661 3.516955 -1.5394952 -0.8443209 -13.647629
-1.8115631 1.0730872 -0.8393735 1.1622059 0.13267046 -0.22565192 -0.9762184 0.48819813
00000000: 40e6 1d40 e23d b540 d113 82be 68f3 99be
00000010: f7d9 5640 5bd5 51bf d0c7 9bbc 5813 5ebc
00000020: 713e db3f 7692 1740 73cc 97bf f66f d9bd
00000030: 4143 8b3e 6ea0 2f3f 50f2 0540 74b9 b3bf
00000040: ca41 6dbf 8655 ebbd 7543 08be 1824 8a3f
00000050: b89c 4abf 30e4 813f 7229 dcbe bc53 393f
00000060: 6864 4b40 e0ad 48bc dbc5 63bf 22c2 4340
00000070: 5024 a83f b547 19c1 8115 373f dfe5 af40
00000080: be18 2e40 2c15 ccbf a83f 183f 0026 ef3c
00000090: 68a3 8dbe d887 e03d 365d 663f 7cbf 5bbf
000000a0: e4ec 90bf a906 f53d f0d1 39c0 805a aeba
000000b0: 1d90 2841 6498 01be d48c 993f 1446 17bf
000000c0: ac87 1ec1 305b 003e 45db 94bc 80ab 443b
000000d0: d5a0 0abf ea07 3340 760b 59bf 4079 e03f
000000e0: defc 3240 3421 60be 88eb e83f 0457 78bd
000000f0: 7cdb 2bc0 3728 aabe e370 2a3e ce3f 4cbd
00000100: d2c9 6fbe 0fcf e53f 0c8d 69be d0ae 0dc0
00000110: ca10 25bf a86b 983e 60dd be3c a17a bebe
00000120: 8659 db3d 8b78 de3d 34e6 33bf 93a8 f3bf
00000130: 6261 10be ae4b 5fbe c951 2640 49b5 a7bf
00000140: 4017 90bf 76d2 29c0 7643 87bd 70c5 b2bc
00000150: ca15 6140 2e0e c5bf 6a25 58bf b05c 5ac1
00000160: 4de1 e7bf ec5a 893f 2fe1 56bf 2ac3 943f
00000170: c4da 073e 4c11 67be 73e9 79bf 1bf5 f93e

model_1/block_6_expand_BN/FusedBatchNormV3 f4 [96]
-0.6222818 1.5767432 2.3909795 0.90544045 -1.0599949 -1.4693705 3.3139973 0.7239935
0.606724 -0.66422075 1.9775288 -0.062685736 -2.5531023 2.8460257 3.0714777 1.1687169
1.8595638 1.455343 -1.9384749 -1.6762642 0.6284955 2.7051172 3.0633943 1.6668098
0.20028624 0.49044842 2.9858959 1.0739335 0.53110236 -1.9583294 1.4781773 -0.7859057
-0.06320253 1.161787 0.007745805 0.20110537 1.8960121 1.0622425 -0.6061804 1.7730358
1.2701384 2.5775933 1.5033984 2.3164144 1.9250079 1.0167874 0.49775308 2.170575
1.3586694 -1.3033268 -1.5672617 0.083649375 -0.15452923 -0.31812003 0.79421896 -0.025109235
0.110841304 -0.25471228 -1.5236996 1.8397868 -0.7542937 0.63946944 -0.25999278 -0.7734425
-1.8654937 1.9058628 2.1676779 0.41136014 -1.1482435 0.3410746 0.39044508 0.5240007
1.3505706 -0.4223463 0.17601 2.1741393 -0.13945338 1.8572965 1.8229736 -0.19612113
1.4908231 0.33618766 -0.07440767 0.26655856 1.827819 2.3851447 2.3407667 0.31302562
0.6941874 2.0433793 -0.100696735 -1.9905543 0.2151141 -1.0099665 -0.6376768 -0.38681057
00000000: dc4d 1fbf b9d2 c93f cf05 1940 f2ca 673f
00000010: eaad 87bf 5514 bcbf 8818 5440 a357 393f
00000020: 4452 1b3f 5f0a 2abf aa1f fd3f 6161 80bd
00000030: 0766 23c0 4925 3640 1793 4440 8498 953f
00000040: 3006 ee3f ae48 ba3f f21f f8bf d38f d6bf
00000050: 15e5 203f a420 2d40 a70e 4440 065a d53f
00000060: d617 4d3e 0e1c fb3e eb18 3f40 a776 893f
00000070: 53f6 073f 8aaa fabf ea34 bd3f 1e31 49bf
00000080: 5470 81bd 70b5 943f 86d0 fd3b 91ee 4d3e
00000090: 86b0 f23f 90f7 873f a42e 1bbf d6f2 e23f
000000a0: e593 a23f 4af7 2440 5c6f c03f 2240 1440
000000b0: a966 f63f 1726 823f 7ed9 fe3e b3ea 0a40
000000c0: e1e8 ad3f 6ad3 a6bf 089c c8bf 5d50 ab3d
000000d0: e93c 1ebe a1e0 a2be ef51 4b3f e2b1 cdbc
000000e0: c400 e33d a669 82be 9708 c3bf 227e eb3f
000000f0: 6419 41bf 45b4 233f c61d 85be 5400 46bf
00000100: 7fc8 eebf 50f3 f33f 3cbb 0a40 cc9d d23e
00000110: a5f9 92bf 54a1 ae3e 6be8 c73e e924 063f
00000120: 7fdf ac3f c63d d8be f73b 343e 1925 0b40
00000130: decc 0ebe e4bb ed3f 3357 e93f fad3 48be
00000140: 4bd3 be3f ca20 ac3e 0c63 98bd 5d7a 883e
00000150: f9f5 e93f 36a6 1840 1fcf 1540 e544 a03e
00000160: 44b6 313f bac6 0240 173a cebd 7cca febf
00000170: df46 5c3e 9546 81bf c93e 23bf 090c c6be

model_1/Conv1/Conv2D f4 [16, 3, 3, 3]
4.874726e-20 3.7147712e-20 2.2560115e-20 1.8998145e-20 9.998501e-21 2.4239876e-21 1.4501874e-20 1.3855346e-20
8.963957e-21 3.8636524e-20 2.4191955e-20 1.3960823e-20 2.0533142e-20 1.3445755e-20 2.9473942e-21 2.0706168e-20
1.8024154e-20 1.7330613e-20 3.1181633e-20 1.1348583e-21 -8.679305e-21 1.1872148e-20 -1.0257334e-20 -2.2796316e-20
1.7555312e-20 6.222834e-21 2.9108964e-21 2.3751116 -0.0467568 1.5895731 -0.17036048 -0.9385544
0.90650105 -6.314817 -5.8084264 -3.4090323 0.1584844 -0.16132882 -0.01628302 -1.0003691
0.3039758 -0.11215965 0.19982994 -1.2465055 0.43169567 -0.12379067 0.94053555 -0.04052466
-0.103673846 0.5461793 0.03931114 2.198734 -0.5537944 0.8454879 1.2078573 0.26329842
-0.060537606 2.3818364 4.1981587 0.08643026 1.6055835 -0.9754245 0.25552607 0.34583214
0.8040635 0.014380775 2.0847054 4.5010877 -1.0291423 0.97580457 0.10733394 -0.2363931
1.5913157 -1.9258442 0.67555815 2.4869258 -1.1966786 -0.72849333 1.3811888 -1.5623895
0.47719726 0.007449949 0.27161893 -0.052438993 0.29413834 0.9212898 0.13292702 -0.01617438
0.10023879 0.0033005548 0.17629533 0.32175666 -0.024991106 0.70395106 1.3365382 0.267172
-0.17096499 -0.15911765 0.0681779 -0.008933814 -0.03365894 -0.050527487 0.2780331 0.32425177
0.10140501 -0.058234442 -0.020012865 0.05237283 0.08842157 0.2028303 -0.016459784 0.027637605
0.24285989 -0.014872019 -0.078533426 0.028087154 -0.020170694 0.09237445 0.22681777 0.12605742
0.06451658 0.3561814 0.1018256 0.03960096 0.14871626 -0.03788239 0.1038424 0.2141244
0.09874466 0.08720679 0.33394933 0.055598956 -0.10678338 0.067618035 0.060446 0.3685431
0.2777193 -4.944661 -0.04933736 0.33526903 -4.19672 -0.23328908 1.2899036 -1.1670128
0.29233065 -1.313752 -5.2503734 0.08045684 -1.5620902 -4.72326 -0.08778287 0.47745085
-1.3202957 -0.13847391 0.5905797 -0.8102484 0.07919208 -0.01532845 -0.8511164 -0.1164907
0.36475748 -0.90334 0.24089211 -0.7679718 0.487786 0.51789844 -1.0633887 0.5578374
0.06958043 -0.25530803 0.15617958 0.3775524 -1.1780671 0.8185761 0.7169601 -1.5604311
0.9501637 0.055194702 -0.3471946 0.26231307 0.20124683 -0.41057906 0.21804424 0.11823039
-0.53152066 0.38058046 -0.16629185 0.10251733 0.047387607 -1.8236411 0.4723254 -0.11648637
-5.0896583 -2.1647093 -0.17837155 -1.0710427 1.0557975 -0.05944146 -0.8689229 -0.58527446
-0.21609603 -6.0207567 -4.7278595 -0.5952673 -0.23618977 -0.35361648 0.19344066 -1.1549444
1.4189494 -0.7657752 -0.68516684 0.41917437 -0.3653465 -1.1280204 1.147502 -0.30550155
0.11436203 0.11853181 0.10766056 0.11344216 0.118136786 0.10659749 0.113266975 0.11666837
0.10564227 0.11464119 0.117174305 0.10649241 0.11225355 0.11559018 0.10478965 0.112940356
0.11545155 0.104229905 0.11335807 0.11613774 0.10622439 0.112383276 0.11623861 0.1053715
0.11270413 0.11529627 0.104645975 -0.25845796 -0.13981687 0.048328694 -0.10970375 -0.124551415
-0.007023273 0.09369502 0.05603168 -0.09590223 1.2804503 1.3827015 -0.23440218 0.9813478
00000000: d233 661f d46c 2f1f 0313 d51e b26e b31e
00000010: c9dd 3c1e bd26 371d 61f7 881e 2cdc 821e
00000020: 0953 291e b174 361f 8f7c e41e 33db 831e
00000030: 17ee c11e aefb 7d1e e5b2 5e1d 7190 c31e
00000040: bb3b aa1e daae a31e 4840 131f b47e ab1c
00000050: 8bf2 239e 2f42 601e 6cc1 419e 1c4e d79e
00000060: 24ce a51e 8f17 eb1d edf0 5b1d d401 1840
00000070: 0f84 3fbd 2277 cb3f fa72 2ebe 1a45 70bf
00000080: 7410 683f fb12 cac0 a1de b9c0 962d 5ac0
00000090: bc49 223e 6233 25be f863 85bc 180c 80bf
000000a0: b7a2 9b3e f5b3 e5bd 38a0 4c3e 7e8d 9fbf
000000b0: 3707 dd3e f685 fdbd f0c6 703f 30fd 25bd
000000c0: f452 d4bd 68d2 0b3f b804 213d 0fb8 0c40
000000d0: 78c5 0dbf e571 583f 119b 9a3f 0dcf 863e
000000e0: 48f6 77bd 0270 1840 5157 8640 5902 b13d
000000f0: c383 cd3f 6cb5 79bf 50d4 823e e910 b13e
00000100: 1bd7 4d3f 589d 6b3c d06b 0540 e908 9040
00000110: efba 83bf 54ce 793f e6d1 db3d 0811 72be
00000120: 3cb0 cb3f 1082 f6bf 61f1 2c3f cb29 1f40
00000130: c42c 99bf 8a7e 3abf cbca b03f 61fc c7bf
00000140: 3353 f43e b41e f43b a311 8b3e 45ca 56bd
00000150: 4d99 963e a6d9 6b3f 051e 083e 2280 84bc
00000160: ff49 cd3d 1f4e 583b c386 343e 4abd a43e
00000170: 26ba ccbc 2336 343f af13 ab3f c5ca 883e
00000180: 7211 2fbe bdef 22be dba0 8b3d 225f 12bc
00000190: f5dd 09bd e9f5 4ebd 5b5a 8e3e 5404 a63e
000001a0: 6ead cf3d 3d87 6ebd 05f2 a3bc e584 563d
000001b0: 5e16 b53d bfb2 4f3e abd6 86bc 4268 e23c
000001c0: 43b0 783e c5a9 73bc 22d6 a0bd 0817 e63c
000001d0: 033d a5bc d12e bd3d eb42 683e 3215 013e
000001e0: 4521 843d 695d b63e f189 d03d 9e34 223d
000001f0: 1349 183e 912a 1bbd 53ab d43d 6d43 5b3e
00000200: a43a ca3d 7999 b23d 68fb aa3e bbbb 633d
00000210: 3fb1 dabd 537b 8a3d 3a96 773d aeb1 bc3e
00000220: 3931 8e3e aa3a 9ec0 f915 4abd 62a8 ab3e
00000230: 884b 86c0 55e3 6ebe 901b a53f ad60 95bf
00000240: 5dac 953e 0729 a8bf 0f03 a8c0 8ec6 a43d
00000250: 92f2 c7bf f224 97c0 81c7 b3bd 7074 f43e
00000260: 73ff a8bf 1bcc 0dbe 3b30 173f 706c 4fbf
00000270: 752f a23d 2e24 7bbc c4e2 59bf ad92 eebd
00000280: 7ec1 ba3e 4a41 67bf 6cac 763e cd99 44bf
00000290: 16bf f93e fe94 043f 1f1d 88bf 6fce 0e3f
000002a0: 2f80 8e3d bcb7 82be 8aed 1f3e 8c4e c13e
000002b0: e7ca 96bf 348e 513f b28a 373f 35bc c7bf
000002c0: ee3d 733f d713 623d 7ec3 b1be e64d 863e
000002d0: a613 4e3e 6b37 d2be fd46 5f3e c622 f23d
000002e0: bd11 08bf 71db c23e 6948 2abe 9bf4 d13d
000002f0: 8219 423d 126d e9bf a3d4 f13e 6890 eebd
00000300: 7bde a2c0 998a 0ac0 08a7 36be ed17 89bf
00000310: 5f24 873f e378 73bd bb71 5ebf 8cd4 15bf
00000320: 4748 5dbe 0aaa c0c0 a04a 97c0 7063 18bf
00000330: bbdb 71be 380d b5be 4f15 463e 38d5 93bf
00000340: 22a0 b53f d809 44bf 1867 2fbf 069e d63e
00000350: b20e bbbe f962 90bf 58e1 923f b36a 9cbe
00000360: a436 ea3d cec0 f23d 247d dc3d 5d54 e83d
00000370: b3f1 f13d c94f da3d 84f8 e73d d4ef ee3d
00000380: f95a d83d 00c9 ea3d 15f9 ef3d b118 da3d
00000390: 30e5 e53d 8bba ec3d f59b d63d 464d e73d
000003a0: dd71 ec3d 7d76 d53d 4728 e83d a0d9 ed3d
000003b0: 2c8c d93d 3429 e63d 820e ee3d 03cd d73d
000003c0: 6cd1 e63d 7320 ec3d a150 d63d 9a54 84be
000003d0: 272c 0fbe 4ff4 453d 5cac e0bd d014 ffbd
000003e0: 7c23 e6bb 2de3 bf3d 7a81 653d 6368 c4bd
000003f0: cce5 a33f 5dfc b03f 2007 70be 9c39 7b3f

model_1/expanded_conv_project/Conv2D f4 [8, 1, 1, 16]
-1.4239543e-20 -1.4841781 -0.065597996 -0.349 12.431638 -0.069177315 -0.40317816 -0.4205697
0.06372008 -12.23982 -8.624022 -0.5162336 1.2843983e-20 12.154586 -0.6185927 2.5846712e-20
1.0950084e-20 -2.2187605 0.3593711 8.635255 6.4607196 1.0181669 2.3336349 0.07296969
0.09091057 -0.9336018 11.950599 -4.424778 2.3368794e-20 2.7359154 -1.4067402 -1.5364278e-19
3.536647e-21 -0.040527325 -0.24638116 -1.361196 -6.049435 0.058280367 1.2530057 -0.41363087
0.058329616 0.14945829 -1.9101801 -0.18678103 9.355239e-21 12.644761 -0.8996951 -3.7903447e-21
-8.4312735e-21 -0.13572958 -1.0820388 -5.984108 3.8225389 0.9371281 3.2455947 0.41964254
0.024428327 2.8669908 -0.06734295 1.6597873 -6.3376563e-21 -0.004646931 0.44128624 -2.4966035e-20
-5.933979e-22 2.266334 -1.5921993 1.6228379 -2.920409 1.3963597 6.3390193 0.36033663
-0.0439443 -3.3026805 0.95960295 -0.7511429 -1.33806166e-20 -0.5692415 0.105485596 2.7048097e-20
-5.804843e-21 -1.5507425 -1.2557025 -0.045424066 -1.6286237 -1.9891175 -0.5428693 0.9131631
0.02781331 0.9301083 -0.3993454 -3.6874135 -1.8743431e-20 -0.29901817 10.590698 -1.03171646e-19
-8.487381e-21 1.2292312 0.37667772 0.47768515 2.9738648 -1.3226597 -1.2484862 -0.58531433
-0.028228743 -6.6506968 7.143889 3.9789855 5.362332e-21 7.872858 3.6503673 3.4490956e-20
4.010688e-21 0.75013185 -0.47730756 5.1020293 0.3880207 0.05346882 0.8728628 0.57103884
0.035760734 2.8826547 -1.9674433 3.050791 2.9274691e-21 -0.29400295 1.8801767 -2.8607835e-20
00000000: 1a7d 869e 8cf9 bdbf 3e58 86bd 21b0 b2be
00000010: fde7 4641 d6ac 8dbd 5e6d cebe e954 d7be
00000020: ac7f 823d 4dd6 43c1 fefb 09c1 e327 04bf
00000030: b19d 721e 2f79 4241 175c 1ebf 841d f41e
00000040: 5bd7 4e1e 2c00 0ec0 7dff b73e 012a 0a41
00000050: 37be ce40 4b53 823f 465a 1540 2271 953d
00000060: 522f ba3d 8700 6fbf a735 3f41 c897 8dc0
00000070: 47b6 dc1e 3d19 2f40 1010 b4bf ae63 35a0
00000080: 5a9c 851d fbff 25bd 584b 7cbe ac3b aebf
00000090: f994 c1c0 65b7 6e3d 7e62 a03f 6dc7 d3be
000000a0: 09eb 6e3d 980b 193e c880 f4bf 8743 3fbe
000000b0: 29b7 301e f150 4a41 6b52 66bf f731 8f9d
000000c0: 2343 1f9e b2fc 0abe 3f80 8abf d07d bfc0
000000d0: 7aa4 7440 a1e7 6f3f d3b7 4f40 63db d63e
000000e0: ea1d c83c c77c 3740 1aeb 89bd e973 d43f
000000f0: 0d6e ef9d 4845 98bb 45f0 e13e 2bcc eb9e
00000100: f057 339c 9e0b 1140 30cd cbbf 27b9 cf3f
00000110: fbe7 3ac0 eabb b23f 3fd9 ca40 0b7e b83e
00000120: f0fe 33bd 1e5f 53c0 8aa8 753f e74a 40bf
00000130: b1c0 7c9e d0b9 11bf d508 d83d 4976 ff1e
00000140: ff4c db9d bb7e c6bf dcba a0bf 960e 3abd
00000150: be76 d0bf 679b febf 7cf9 0abf 0fc5 693f
00000160: bdd8 e33c 941b 6e3f 0077 ccbe 95fe 6bc0
00000170: d606 b19e e918 99be 8073 2941 6f9b f39f
00000180: 7552 209e 7357 9d3f e7db c03e 2693 f43e
00000190: cd53 3e40 ea4c a9bf 65ce 9fbf 29d7 15bf
000001a0: f73f e7bc 82d2 d4c0 bd9a e440 b3a7 7e40
000001b0: 4b95 ca1d 74ee fb40 9e9f 6940 02e1 221f
000001c0: ff84 971d a408 403f a861 f4be d343 a340
000001d0: a6aa c63e 1f02 5b3d f073 5f3f 9a2f 123f
000001e0: d979 123d 6a7d 3840 2fd5 fbbf 2940 4340
000001f0: 7d31 5d1d 8e87 96be a1a9 f03f c018 079f

model_1/block_1_expand/Conv2D f4 [48, 1, 1, 8]
0.013924314 -0.16004783 0.051868953 -0.04677959 0.025960919 -0.025993228 -0.054100197 0.029606659
0.05638446 0.06052981 -0.026944365 -0.08006455 0.011430827 -0.019091938 -0.06746265 0.1153786
0.020843511 0.010891807 -0.025049722 0.08527832 0.038127087 0.07445837 0.024061011 0.061496913
0.04259266 0.038460933 -0.049210552 0.07815394 -0.05776575 -0.0040559145 0.00079403224 0.011972512
-0.019908633 -0.057851505 0.041268915 0.0072325426 -0.0018595712 0.0134140095 -0.022228805 -0.07305009
0.008937427 0.0036780327 -0.021034747 0.02938706 -0.00036119597 -0.017786585 0.024000192 0.08019044
0.032224763 -0.008646872 -0.09688247 -0.06813458 0.06484111 0.012527535 0.038008686 -0.024303691
0.3490354 0.05269446 0.059492968 -0.06734761 0.071998596 -0.024935741 0.22581968 -0.17512827
0.020258592 -0.083912015 0.0032315638 0.0825885 -0.0054523624 0.008898279 0.0014529004 -0.09454429
0.51694894 -0.66111016 0.03818331 -0.040548254 -0.057005238 0.057462707 -0.64334 0.44846064
-0.16791244 -0.049275458 -0.15286502 0.02954824 -0.023415262 0.021510283 -0.12424186 0.07106832
-0.10690656 -0.14872222 -0.002564168 -0.37409565 -0.49645352 -0.101171724 0.20163043 -0.054725945
0.004991351 0.0028198657 -0.011237219 0.023750726 -0.02879739 -0.009006195 0.020291751 0.043972265
-8.1376205e-22 -1.1875322e-20 -1.5763542e-20 -1.8739778e-20 2.1348847e-20 -1.8020162e-20 1.7291028e-20 6.2774147e-21
-0.012779583 -0.05066949 -0.01086832 0.03321681 0.10012392 0.25415203 0.08550733 0.08404962
0.013625992 0.00012110184 0.004202251 -0.03690641 0.019104198 0.014240801 -0.017704757 0.023198871
-1.5224715e-21 -1.24700054e-20 -9.934921e-21 -1.6505103e-21 1.5713706e-20 -2.4986747e-20 -1.2491979e-20 -1.4501184e-20
0.22887567 0.39543393 1.6622269 0.2500773 -0.29426113 -0.11066353 0.2540462 0.37388372
0.07621198 -0.12004387 0.018354438 0.032793097 -0.012328047 0.014730637 -0.10344874 -0.0030671034
-0.08583852 -0.00815202 0.02257469 0.048575908 -0.038443387 -0.041911565 -0.07485568 0.049704425
0.017223202 0.017593239 -0.024756694 0.06537503 -0.016344592 -0.08303334 -0.0002259433 0.03119891
0.5215711 0.12475921 1.1992652 0.17404787 -0.1299816 -0.18510695 0.76079065 0.1594544
-0.05228327 -0.013420155 -0.092205584 0.0026974697 0.00059706636 0.004998856 -0.07218508 0.0059888395
-0.33190092 0.38506585 -0.08196343 -0.0916673 0.03617043 -0.041170783 0.3789865 -0.262409
0.012341262 -0.10471995 -0.100151785 0.15768965 -0.02019981 -0.13319114 0.19672818 0.24728058
0.012376646 0.05471848 0.04461817 0.045510348 0.14627947 0.13148552 -0.08795322 -0.06955743
-0.39606664 -0.15539026 -0.5932398 0.010205023 0.02662489 0.086654514 -0.44818273 -0.015831923
-0.008936958 -0.04929628 -0.101772055 0.05192802 -0.16982543 0.49152347 0.25849727 0.214937
0.0006635707 -0.00930513 -0.0136296535 0.019256597 0.013332939 0.065580025 0.029803894 0.03508673
0.28382045 0.10588909 0.45449874 -0.012600125 -0.07416192 -0.03206611 0.27885243 -0.047969993
-0.19792616 0.32458487 -0.065016575 -0.093107 0.022883648 -0.024566285 0.27394798 -0.11332029
-0.012151153 -0.027275832 -0.008056333 0.0025416052 0.010179584 -0.020735625 0.03595142 0.034065057
00000000: ce22 643c 94e3 23be 8a74 543d f59b 3fbd
00000010: feab d43c c0ef d4bc 2b98 5dbd aa89 f23c
00000020: 64f3 663d 1bee 773d 6eba dcbc e2f8 a3bd
00000030: 5d48 3b3c b266 9cbc dc29 8abd 9e4b ec3d
00000040: 03c0 aa3c 8d73 323c 1335 cdbc 66a6 ae3d
00000050: 262b 1c3d a17d 983d 991b c53c 30e4 7b3d
00000060: a475 2e3d 3689 1d3d 0191 49bd 2c0f a03d
00000070: c79b 6cbd 7ae7 84bb 9a26 503a 5b28 443c
00000080: 6e17 a3bc b3f5 6cbd 9809 293d f7fe ec3b
00000090: dbbc f3ba 6fc6 5b3c 2f19 b6bc 499b 95bd
000000a0: 496e 123c 260b 713b 1051 acbc 22bd f03c
000000b0: e75e bdb9 2cb5 91bc 0d9c c43c e33a a43d
000000c0: 1dfe 033d 9cab 0dbc 516a c6bd 258a 8bbd
000000d0: 6acb 843d 4a40 4d3c ffae 1b3d 8918 c7bc
000000e0: c5b4 b23e 25d6 573d e6ae 733d 8bed 89bd
000000f0: 0074 933d 0a46 ccbc 463d 673e d354 33be
00000100: 59f5 a53c 10da abbd a5c8 533b 2924 a93d
00000110: bba9 b2bb 16ca 113c 3f6f be3a 70a0 c1bd
00000120: c456 043f 843e 29bf 1a66 1c3d ed15 26bd
00000130: 537e 69bd 045e 6b3d eeb1 24bf a29c e53e
00000140: 3df1 2bbe 10d5 49bd a688 1cbe 270f f23c
00000150: 5dd1 bfbc 5536 b03c 8472 febd 448c 913d
00000160: d4f1 dabd a34a 18be 9a0b 28bb 7789 bfbe
00000170: 282f febe 1f33 cfbd 3578 4e3e 5028 60bd
00000180: 7d8e a33b 7fcd 383b 501c 38bc e290 c23c
00000190: 81e8 ebbc b88e 13bc e33a a63c 431c 343d
000001a0: caf1 759c 8951 609e e8e1 949e 01fe b09e
000001b0: 58a2 c91e 1432 aa9e 244f a31e 6e27 ed1d
000001c0: 7561 51bc d08a 4fbd 0a11 32bc 5a0e 083d
000001d0: c50d cd3d 3720 823e 781e af3d 3522 ac3d
000001e0: 8e3f 5f3c 0ef8 fd38 09b3 893b 2d2b 17bd
000001f0: 6880 9c3c 4052 693c 9109 91bc 8f0b be3c
00000200: c311 e69c 3f8d 6b9e 54aa 3b9e 066b f99c
00000210: 6969 941e 3ffe eb9e 81f7 6b9e b6f5 889e
00000220: 625e 6a3e 5176 ca3e dac3 d43f 220a 803e
00000230: 65a9 96be 90a3 e2bd 5812 823e b06d bf3e
00000240: 0715 9c3d 8fd9 f5bd 0c5c 963c 0e52 063d
00000250: 94fb 49bc c558 713c efdc d3bd 7501 49bb
00000260: 1bcc afbd 0d90 05bc 8eee b83c 88f7 463d
00000270: d076 1dbd 76ab 2bbd ef4d 99bd de96 4b3d
00000280: ac17 8d3c b21f 903c 8dce cabc 58e3 853d
00000290: 18e5 85bc 620d aabd 31eb 6cb9 db94 ff3c
000002a0: af85 053f c281 ff3d 8681 993f 9b39 323e
000002b0: e619 05be ad8c 3dbe 2dc3 423f 0448 233e
000002c0: fb26 56bd 36e0 5bbc 48d6 bcbd 08c8 303b
000002d0: 7284 1c3a 72cd a33b c5d5 93bd 073e c43b
000002e0: ebee a9be 5a27 c53e 71dc a7bd 11bc bbbd
000002f0: 7227 143d b2a2 28bd 850a c23e 795a 86be
00000300: 0133 4a3c 6a77 d6bd 611c cdbd 6579 213e
00000310: 127a a5bc 4263 08be 1d73 493e 1f37 7d3e
00000320: 6ac7 4a3c 7c20 603d 8bc1 363d 0f69 3a3d
00000330: 49ca 153e 24a4 063e d120 b4bd 2074 8ebd
00000340: 3fc9 cabe a01e 1fbe 90de 17bf f832 273c
00000350: 711c da3c ec77 b13d 3578 e5be f3b1 81bc
00000360: 526c 12bc e5ea 49bd de6d d0bd 7ab2 543d
00000370: b8e6 2dbe f7a8 fb3e c159 843e 7218 5c3e
00000380: 7af3 2d3a 8b74 18bc e94e 5fbc 03c0 9d3c
00000390: 6672 5a3c d24e 863d 4c27 f43c 1ab7 0f3d
000003a0: ea50 913e 61dc d83d 0fb4 e83e c170 4ebc
000003b0: 34e2 97bd c157 03bd bfc5 8e3e 2f7c 44bd
000003c0: 28ad 4abe fd2f a63e 6927 85bd e2ae bebd
000003d0: 7d76 bb3c 3c3f c9bc e942 8c3e 7814 e8bd
000003e0: a115 47bc 9171 dfbc b6fe 03bc 0f91 263b
000003f0: 45c8 263c c2dd a9bc cc41 133d cd87 0b3d

model_1/block_1_project/Conv2D f4 [8, 1, 1, 48]
-0.89911765 0.16376413 0.7420264 -5.3807807 0.581863 1.754897 0.21789342 0.55515677
0.07346051 0.61578274 -0.14272702 -0.41210932 5.875879 7.994031e-22 0.045581155 0.049680475
-2.72024e-21 -0.33087918 -0.64715767 -0.14067332 4.8335423 -0.071844235 0.100948356 0.48243818
1.849464 2.368665 0.9780675 0.7501669 0.19017823 0.13327366 0.0164566 -7.9301867
0.5896833 0.5147523 -0.15244626 0.009653318 -1.5564731 -0.001241892 -1.1690791 2.0380096
0.41909406 -1.6664286 -0.61217046 0.48279113 0.035410307 0.03250052 0.16065094 0.12420835
-0.99477464 -0.15872903 -0.2172681 -0.14480571 1.1602515 0.742104 -0.7815052 2.0418098
0.5024517 0.18646099 -0.8223206 -0.59407353 0.2992577 3.616068e-22 0.5223386 0.8513323
1.5979107e-22 1.2884921 0.42212236 -1.4762102 -0.028539484 0.7182025 3.4336383 0.5634771
-0.6634788 -0.15168607 1.5008066 -0.07666163 0.5820722 -0.063891396 0.39848277 -0.32819918
0.42758206 -0.2014652 -0.28341898 -0.500413 0.1976889 -1.3885357 0.28705174 0.13527304
-0.23913646 -0.10284809 -2.1402705 -0.2200922 -0.89963907 0.2600208 -1.1694107 -2.502192
-3.509901 0.69094664 0.074975766 0.6505726 2.6862626 -0.34458563 1.740279 1.3402114
-0.726382 3.216697 0.67585 -0.04786748 0.38475156 -3.3547915e-21 0.6113162 3.1072538
3.4824817e-21 0.8307296 -7.455263 1.2370032 0.16596313 1.038944 0.37065384 -0.9057687
-1.7598413 0.17613971 2.212532 0.36254412 0.52992517 1.7427545 1.4150217 0.42929333
0.1759968 -0.71151876 -0.37305656 -0.70111156 0.55596536 0.22347446 0.34576955 0.34327278
2.145907 -0.5073227 -1.8553982 0.3530672 1.4415512 -3.402807 1.5677363 0.99919116
0.043319803 -0.06313116 0.17754531 0.44211298 -0.43136528 1.1838859 -0.04904209 -0.3325259
3.1548796 0.73881066 -0.01658442 0.012204252 1.3248848 2.6603863e-21 -1.2716427 -0.28316763
1.3299533e-21 0.020384552 -0.39808652 0.13948101 -0.03265287 0.027115246 0.19990215 -0.7296131
-0.65248185 -0.0023679917 -0.43976262 -0.13299888 -0.44036496 -0.16961816 -0.14457795 -0.34088835
-2.3531227 2.125324 -2.9409287 -0.044826765 0.17652518 0.12077327 0.32009155 -6.215498
0.11901293 -0.016273465 0.09160304 -2.5458944 -0.011599838 0.16689923 0.15543514 0.38314152
-0.013800461 -0.026949132 3.4746063 1.5496746 0.2600568 -0.86065567 -0.06047326 -0.13541035
0.03176207 -0.10860126 -0.28083923 -0.08624156 -3.4480832 -5.285582e-22 -0.46422243 0.05212973
-1.2321158e-21 0.63505507 0.2770847 0.009422901 2.7246845 0.3310186 -0.0804676 -0.23090875
-0.7857288 1.4561604 -0.33000648 1.6911911 -0.2416254 -0.059449393 0.16794977 4.193298
0.18987459 0.059494447 -0.043403435 -0.029639864 0.9090805 -0.29138434 -0.15167123 -0.70547676
-0.0038574934 -5.471914 0.07193455 0.26998368 -0.023633175 -0.13133532 -0.05726073 -0.10622166
-0.43815002 2.1041727 0.072372094 -0.41667867 0.032804083 2.2628949 1.151772 0.5394862
-1.0506368 1.451157 0.4079529 2.4161823 1.2730972 -6.5575147e-22 -6.286008 -0.07556876
00000000: 932c 66bf c9b1 273e 71f5 3d3f 5b2f acc0
00000010: f9f4 143f 77a0 e03f 741f 5f3e c11e 0e3f
00000020: 7772 963d f0a3 1d3f 0827 12be feff d2be
00000030: 3307 bc40 d29a 711c 4eb3 3a3d c17d 4b3d
00000040: 1889 4d9d ff68 a9be 20ac 25bf ab0c 10be
00000050: 61ac 9a40 1223 93bd 03be ce3d 2302 f73e
00000060: 3dbb ec3f 3598 1740 a262 7a3f f00a 403f
00000070: 15be 423e e478 083e fecf 863c 17c4 fdc0
00000080: 7cf5 163f cfc6 033f df1a 1cbe f328 1e3c
00000090: 833a c7bf fbc6 a2ba 62a4 95bf c06e 0240
000000a0: 7f93 d63e 884d d5bf 34b7 1cbf 6630 f73e
000000b0: 660a 113d 441f 053d ae81 243e f360 fe3d
000000c0: 8da9 7ebf dd89 22be 877b 5ebe f347 14be
000000d0: 1f83 943f 87fa 3d3f ba10 48bf 03ad 0240
000000e0: ada0 003f a1ef 3e3e 9a83 52bf 3415 18bf
000000f0: 4e38 993e f193 da1b fcb7 053f eaf0 593f
00000100: f12c 411b 4fed a43f 6c20 d83e 75f4 bcbf
00000110: a3cb e9bc 1edc 373f bbc0 5b40 0940 103f
00000120: bfd9 29bf 9853 1bbe 6e1a c03f c600 9dbd
00000130: af02 153f 7ed9 82bd ef05 cc3e b909 a8be
00000140: 09ec da3e e54c 4ebe 4b1c 91be 111b 00bf
00000150: f66e 4a3e 8abb b1bf 72f8 923e 0485 0a3e
00000160: 30e0 74be 05a2 d2bd 31fa 08c0 da5f 61be
00000170: bf4e 66bf 7221 853e 40af 95bf ea23 20c0
00000180: 38a2 60c0 e1e1 303f e58c 993d ed8b 263f
00000190: baeb 2b40 876d b0be 76c1 de3f 0c8c ab3f
000001a0: 2cf4 39bf 5dde 4d40 8104 2d3f b110 44bd
000001b0: 28fe c43e 1b7b 7d9d 387f 1c3f 3fdd 4640
000001c0: 7f90 831d b2aa 543f 8491 eec0 1f56 9e3f
000001d0: 3df2 293e 1efc 843f 57c6 bd3e 75e0 67bf
000001e0: 7b42 e1bf f85d 343e 209a 0d40 629f b93e
000001f0: 2da9 073f 9412 df3f 6e1f b53f 56cc db3e
00000200: 8138 343e 1826 36bf 4501 bfbe 0c7c 33bf
00000210: bf53 0e3f 7dd6 643e b508 b13e 73c1 af3e
00000220: 8a56 0940 e7df 01bf b07d edbf 39c5 b43e
00000230: c084 b83f 97c7 59c0 95ab c83f feca 7f3f
00000240: 1b70 313d e94a 81bd 70ce 353e a25c e23e
00000250: e9db dcbe 9389 973f 5ce0 48bd d640 aabe
00000260: 8ce9 4940 b222 3d3f 0ddc 87bc 58f4 473c
00000270: d395 a93f 5b03 491d 30c5 a2bf 59fb 90be
00000280: 14fa c81c 81fd a63c ffd1 cbbe 1cd4 0e3e
00000290: 04bf 05bd cb20 de3c 26b3 4c3e edc7 3abf
000002a0: 0d09 27bf 4f30 1bbb 9128 e1be dc30 08be
000002b0: 8477 e1be 62b0 2dbe 3e0c 14be eb88 aebe
000002c0: 9099 16c0 4f05 0840 2d38 3cc0 459c 37bd
000002d0: 04c3 343e fa57 f73d 0ae3 a33e 5ce5 c6c0
000002e0: 0dbd f33d ee4f 85bc 609a bb3d efef 22c0
000002f0: 3f0d 3ebc a2e7 2a3e 642a 1f3e 202b c43e
00000300: 541b 62bc 6dc4 dcbc f35f 5e40 bd5b c63f
00000310: 2a26 853e ee53 5cbf cfb2 77bd 03a9 0abe
00000320: f218 023d 566a debd 29ca 8fbe 6a9f b0bd
00000330: 65ad 5cc0 36bf 1f9c 90ae edbe fc85 553d
00000340: 2c31 ba9c f892 223f 0cde 8d3e 8362 1a3c
00000350: 3b61 2e40 457b a93e 32cc a4bd 5873 6cbe
00000360: 8625 49bf 7763 ba3f 9cf6 a8be f378 d83f
00000370: a66c 77be 3581 73bd 06fb 2b3e 7f2f 8640
00000380: 7c6e 423e 73b0 733d cdc7 31bd 4dcf f2bc
00000390: 80b9 683f 5430 95be b44f 1bbe 209a 34bf
000003a0: 00ce 7cbb eb19 afc0 6c52 933d 4d3b 8a3e
000003b0: 5c9a c1bc c47c 06be 3a8a 6abd be8a d9bd
000003c0: 3355 e0be c4aa 0640 d237 943d e856 d5be
000003d0: 935d 063d 45d3 1040 446d 933f c51b 0a3f
000003e0: 447b 86bf 83bf b93f 34df d03e bba2 1a40
000003f0: d9f4 a23f 5030 469c fa26 c9c0 cbc3 9abd

model_1/block_2_expand/Conv2D f4 [48, 1, 1, 8]
0.012642524 0.0057426672 -0.0011404775 -0.001537436 0.0141878 0.003606013 -0.0063809105 -0.006180671
-0.0026105754 -0.0037128406 -0.0001676756 0.096875 0.009937024 -0.011165127 -0.0016453785 0.02130801
0.016171146 -0.07915907 -0.01146465 0.02549006 -0.005886417 -0.038591444 0.04838305 0.008516847
0.14656918 -0.034726135 0.0008227802 0.013229411 -0.0012426398 -0.044917636 0.024725137 0.0089627355
0.04751168 -0.20501693 0.46684846 -0.04922667 -0.054515332 -0.18573605 0.020552577 -0.33264688
0.09686369 -0.012672109 -0.003699711 0.009970508 0.17458937 0.0049400735 -0.024150083 0.009468568
-0.030092785 0.2148515 -0.052573532 0.3377873 0.03164051 0.14749624 -0.14619482 -0.14509353
-0.024449253 0.3516531 -0.012339025 0.001546761 -0.02307874 -0.020097954 0.008029667 -0.017244637
0.1868811 0.05883972 -0.017069127 0.005249782 -0.077456355 -0.03919426 0.00069281703 -0.033690985
-0.17118919 0.028479612 0.019756116 0.0238811 0.09284171 0.0081639225 0.0042071426 -0.0046948697
-0.11679416 -0.012609467 0.022453424 0.21257514 0.09549233 0.056671232 -0.042669937 -0.009836397
-0.13524908 0.0029152595 0.02161382 -0.06731413 0.058020044 0.017795434 -0.033094574 -0.07211794
0.16451491 0.041398052 0.013591282 0.006770431 -0.04597125 -0.006948112 0.0015857932 -0.058620095
-0.0185308 0.12192562 -0.19463389 -0.017470509 0.003879689 0.15129074 -0.10314688 0.109278046
-0.078417026 -0.040478624 -0.030163143 0.16504754 0.043199245 0.00572499 -0.027241703 -0.03846402
-0.043278597 0.54348695 0.01732704 -0.021165593 -0.012019244 -0.06903711 0.029095128 -0.2381186
-0.012203699 -0.09357067 -0.016752906 -0.0010108537 0.00870374 -0.08705361 0.1049053 -0.031100092
0.009143095 0.12552384 0.00029910466 -0.01761483 -0.00040402738 0.06777262 -0.077307224 -0.010938154
-0.030615365 0.18524715 -0.66693175 -0.0073292125 0.053109143 0.27680433 -0.15248373 0.32056075
-0.018430809 0.006315658 0.0023799508 0.003710869 -0.038815398 0.003174926 0.0047061364 0.0074155238
-0.06769661 -0.011755931 -0.0044960813 -0.0010505884 0.060582682 -0.02434466 0.035711594 -0.005470948
-0.058069382 -0.0050678123 -0.0074423705 0.002761855 -0.11767403 0.0013754953 0.013043019 -0.0039884974
-0.11005473 -0.038444344 -0.012884595 -0.00089220493 0.1158628 -0.01115662 0.049077697 0.044404626
-0.046305068 -0.07032252 -0.023116125 -0.028394323 -0.022537675 0.20512351 -0.3167308 -0.20629783
-0.00781781 0.04038671 -0.11750682 -0.00022665646 0.011731056 0.04942278 -0.020225178 0.073548354
0.05547083 -0.014269736 -0.004167885 0.06332393 -0.034345437 -0.0076813665 0.0035088116 -0.032466635
0.0031197122 -0.0064315395 -0.0011858853 -0.000494837 -0.0025891282 0.03994571 0.046711616 -0.010796811
0.06126045 0.0018458002 -0.010239448 0.012244737 0.11715229 0.024767516 0.040514108 -0.028373463
0.009659332 0.26457325 -0.119718365 0.017094612 0.027256263 0.20364395 -0.08776108 0.2293813
-0.035972252 0.01710917 -0.012323714 -0.015716696 -0.017332993 0.21130942 -0.3498192 -0.1969944
0.0052827788 0.00048454068 0.0026669083 -0.16807443 -0.010969945 -0.003107455 -0.00348349 -0.021560114
-0.06965359 0.013089478 0.0030258389 0.008339982 -0.13975316 0.009210927 0.023037555 -0.00827079
00000000: 9722 4f3c fc2c bc3b 137c 95ba cb83 c9ba
00000010: f273 683c dc52 6c3b f516 d1bb 3a87 cabb
00000020: 3016 2bbb 2153 73bb 13d2 2fb9 6666 c63d
00000030: e6ce 223c f0ed 36bc bea9 d7ba 238e ae3c
00000040: 5a79 843c 271e a2bd 3ad6 3bbc 88d0 d03c
00000050: d8e2 c0bb 1012 1ebd 4e2d 463d 3f8a 0b3c
00000060: 3b16 163e fe3c 0ebd d8af 573a 2cc0 583c
00000070: 13e0 a2ba 8efb 37bd 5f8c ca3c 70d8 123c
00000080: 9b9b 423d f5ef 51be c306 ef3e e8a1 49bd
00000090: 784b 5fbd 9731 3ebe e15d a83c b150 aabe
000000a0: 7860 c63d ad9e 4fbc da76 72bb 575b 233c
000000b0: 8ec7 323e 57e0 a13b 65d6 c5bc 0d22 1b3c
000000c0: 2585 f6bc 0802 5c3e 5857 57bd 75f2 ac3e
000000d0: 7b99 013d 4109 173e 18b4 15be 6693 14be
000000e0: cd49 c8bc e00b b43e 9f29 4abc b0bc ca3a
000000f0: a00f bdbc 77a4 a4bc dd8e 033c a044 8dbc
00000100: c25d 3f3e eb01 713d 8ed4 8bbc 5d06 ac3b
00000110: 70a1 9ebd 298a 20bd 2a9e 353a 8fff 09bd
00000120: 384c 2fbe 134e e93c 94d7 a13c 4ca2 c33c
00000130: cb23 be3d f9c1 053c 12dc 893b 6cd7 99bb
00000140: c731 efbd f097 4ebc 3ef0 b73c 4cad 593e
00000150: 7c91 c33d 1820 683d acc6 2ebd d728 21bc
00000160: bc7e 0abe f00d 3f3b 770f b13c fedb 89bd
00000170: 6da6 6d3d bbc7 913c 2d8e 07bd 92b2 93bd
00000180: 9976 283e 0191 293d f8ad 5e3c 7eda dd3b
00000190: 594c 3cbd fdac e3bb 64da cf3a a01b 70bd
000001a0: e7cd 97bc 24b4 f93d 1b4e 47be 501e 8fbc
000001b0: 6142 7e3b f6eb 1a3e ac3e d3bd 2bcd df3d
000001c0: 1b99 a0bd eacc 25bd b218 f7bc 3902 293e
000001d0: b1f1 303d b298 bb3b fe29 dfbc 738c 1dbd
000001e0: e644 31bd f621 0b3f 70f1 8d3c 7763 adbc
000001f0: 5dec 44bc 5463 8dbd e858 ee3c 5dd5 73be
00000200: 06f2 47bc fba1 bfbd 643d 89bc 9f7e 84ba
00000210: 229a 0e3c 2a49 b2bd 97d8 d63d 9fc5 febc
00000220: eccc 153c 5289 003e 26d1 9c39 fa4c 90bc
00000230: a3d3 d3b9 5fcc 8a3d 4053 9ebd f135 33bc
00000240: 13cd fabc 6eb1 3d3e 0abc 2abf e429 f0bb
00000250: f988 593d 4cb9 8d3e b224 1cbe 8a20 a43e
00000260: 35fc 96bc 94f3 ce3b f3f8 1b3b 0d32 733b
00000270: e5fc 1ebd 6b12 503b ef35 9a3b ecfd f23b
00000280: 85a4 8abd f39b 40bc dd53 93bb e6b3 89ba
00000290: 8c25 783d 746e c7bc 5246 123d a345 b3bb
000002a0: 29da 6dbd e40f a6bb 21df f3bb 3d00 353b
000002b0: 15ff f0bd f749 b43a 63b2 553c f1b1 82bb
000002c0: 6064 e1bd d177 1dbd e919 53bc dce2 69ba
000002d0: 7a49 ed3d 42ca 36bc b205 493d a0e1 353d
000002e0: 62aa 3dbd 4105 90bd 075e bdbc 369b e8bc
000002f0: eea0 b8bc e60b 523e 8a2a a2be bd3f 53be
00000300: 4616 00bc 896c 253d 6aa7 f0bd a1aa 6db9
00000310: 9d33 403c 8a6f 4a3d 46af a5bc 85a0 963d
00000320: 6235 633d 9ccb 69bc c192 88bb faaf 813d
00000330: cdad 0cbd f9b3 fbbb 17f4 653b bcfb 04bd
00000340: 1674 4c3b aabf d2bb b56f 9bba f3b7 01ba
00000350: 5dae 29bb 1d9e 233d ae54 3f3d 1ce5 30bc
00000360: 3dec 7a3d c7ee f13a 5cc3 27bc 269e 483c
00000370: 8aed ef3d 3fe5 ca3c 1ff2 253d 776f e8bc
00000380: 2d42 1e3c 2576 873e e72e f5bd 000a 8c3c
00000390: 8748 df3c 0a88 503e 15bc b3bd eee2 6a3e
000003a0: a457 13bd 8828 8c3c 67e9 49bc 4dc0 80bc
000003b0: ecfd 8dbc 7f61 583e 811b b3be e6b8 49be
000003c0: 291b ad3b f309 fe39 4cc7 2e3b b41b 2cbe
000003d0: 49bb 33bc 72a6 4bbb 444b 64bb d69e b0bc
000003e0: 8ba6 8ebd 4075 563c 274d 463b 6ba4 083c
000003f0: 741b 0fbe 6ee9 163c 41b9 bc3c 3582 07bc
